data.pth (torch, 5271 bytes, 6 tensors)

l1.weight f4 [8, 57]
000000 25 77 2b be cf 26 e4 bd fe 6f 58 3e b3 e4 c9 3e
       -0.16744669 -0.11140215 0.21136472 0.39432296
000010 5a cd 9f 3e a9 b9 4f 3f a4 79 73 3e 25 51 5f 3e
       0.31211358 0.8114267 0.23776871 0.21808298
000020 0e 7a cc 3e 32 be 0d 3e db cc fa 3e 81 32 c2 3e
       0.3993687 0.13842085 0.48984417 0.37929156
000030 c5 40 e6 3c 5b d9 e7 3e f8 0a 8d bd cd 71 6c 3e
       0.028107056 0.45283017 -0.06886858 0.23090287
000040 da a0 c9 3e 9f f6 43 3f 30 96 77 be 39 1b ed 3e
       0.39380533 0.7654819 -0.24178386 0.46309832
000050 64 c9 7f be f4 86 f5 3e f0 6b 06 3f 7b 31 08 3f
       -0.24979168 0.47954524 0.5250845 0.532005
000060 39 f7 f9 3e c6 f4 04 3f 71 dd b8 be 85 18 d1 bd
       0.48821428 0.51935995 -0.36106446 -0.10209755
000070 ce 75 2d be 91 7f 45 bd 52 ff 21 3f 8a 35 b4 3e
       -0.1693947 -0.04821736 0.6328021 0.35197097
000080 53 4f 46 3d e8 4e ea 3d e4 4c 34 be 55 10 a4 3e
       0.048415493 0.114408314 -0.17607456 0.3204371
000090 ee d6 ea bd 5c 78 f5 bd b8 c2 5f 3e c9 86 34 3e
       -0.11466776 -0.11985847 0.21851623 0.17629541
0000a0 cc eb a9 3e 37 0e 14 3f 2c ed a4 be aa 69 8b 3e
       0.3318771 0.5783419 -0.32212198 0.27229053
0000b0 c2 51 43 be a6 ae fb 3e d0 f2 79 3c 68 20 3f bf
       -0.19074157 0.49156684 0.015255645 -0.74658823
0000c0 a7 ba a8 be 31 10 83 3d e4 b9 e7 be 40 36 c2 3e
       -0.32954904 0.06399573 -0.4525901 0.37932014
0000d0 85 0f 30 be c5 7a b9 bd 80 87 0e 3e 66 ef 05 38
       -0.1719342 -0.090566196 0.13918877 3.193263e-05
0000e0 f9 3c a2 3d 67 bc 2f 3f 0d 99 12 3f c9 34 da bd
       0.07921786 0.68646854 0.57264787 -0.10654599
0000f0 51 74 05 3f 09 b2 8d 3e ab 8a 30 bf 20 c8 1e 3e
       0.5213061 0.27674893 -0.6896159 0.15506029
000100 3b 3d 2d bd 2a 42 cf bd 35 fe 2b bd 23 44 fd 3e
       -0.042294722 -0.10120042 -0.041990478 0.49466047
000110 97 28 a1 be aa 3a 1c 3f 6d aa e6 be 2e 56 02 3f
       -0.3147628 0.61027014 -0.450519 0.5091275
000120 3d 74 cb be e2 33 37 3f 5f a6 30 bf 2d f6 14 3f
       -0.3973712 0.7156354 -0.6900386 0.58188134
000130 d9 80 5e 3f 3d 73 0c 3f fb 31 48 3f df 2f 54 3f
       0.86915356 0.5486334 0.78201264 0.82885545
000140 15 bc ef 3e af 27 4f be ba e8 de 3e 22 b4 1c 3f
       0.46823183 -0.20229982 0.4353693 0.6121236
000150 5b f6 17 3f 37 5a 08 3f 8b 29 c7 3e 3a 22 07 bf
       0.59360284 0.53262657 0.38898882 -0.527866
000160 78 4c ea be 80 f0 0d 3f 7c 09 9f be 0a ca 31 3f
       -0.45761466 0.554451 -0.31061924 0.6944891
000170 c2 6c 18 be ab f3 36 bf d4 40 06 3f 71 6a d6 bd
       -0.14885238 -0.7146556 0.5244267 -0.10469521
000180 23 df 1c 3e 57 1e 71 3d f4 7c 17 bf b8 ce 1e 3f
       0.15319495 0.058866825 -0.5917504 0.6203418
000190 e5 0b 67 be e5 e7 e2 3e 4e 9f 26 be a9 09 3c 3f
       -0.22563131 0.44317546 -0.16271707 0.7345224
0001a0 59 3d 92 3f 5a f8 de 3e 61 6f 14 3f d8 37 08 3f
       1.1424972 0.43548852 0.5798245 0.5321021
0001b0 0d 1d c0 be 1d 24 e0 3e ac 0f e0 be 4c 62 28 3e
       -0.37522164 0.43777552 -0.43761957 0.16443747
0001c0 9c dd ec 3e 41 e0 93 be 8a 17 d6 bd 47 7a 2b 3f
       0.46262825 -0.2888203 -0.104537085 0.66983455
0001d0 22 29 ad 3e b6 3b 23 bd fa f6 04 3d b2 46 f4 3e
       0.33820444 -0.039851867 0.032462098 0.47710186
0001e0 84 94 b6 3e 1e 3c ae 3e df e9 12 3f 42 1f 9d 3e
       0.35660183 0.3403024 0.5738811 0.3068791
0001f0 92 3e ee bd 99 ee a8 be 4c 0a 17 3f 5e 85 54 bd
       -0.11633028 -0.32994536 0.59000087 -0.051885
000200 36 97 2a 3f b3 10 07 be 5c c2 f3 bd f5 d8 e1 3e
       0.6663698 -0.13189964 -0.119023055 0.44110838
000210 34 ae 19 be 09 fc 01 3d 61 5a c4 bd 77 35 da bd
       -0.1500786 0.0317345 -0.09587551 -0.10654729
000220 6c 1a 89 bd ae bf cd bc 0c 7f 02 be 6f c4 86 3d
       -0.06694493 -0.025115814 -0.12743777 0.065804355
000230 a8 26 9d bd 3f 5e 47 3f 64 06 79 3e 8c 29 01 3f
       -0.07673389 0.77878183 0.24318844 0.5045402
000240 ec 2b 38 3e 4a f7 8e be ef 15 50 be 73 00 fb 3e
       0.17985505 -0.27923042 -0.20320867 0.4902378
000250 f7 bb 26 3f 2a 0b 65 be fd 4a a3 be 2a f2 b3 3d
       0.6513056 -0.2236754 -0.3189315 0.087864235
000260 04 ae d0 3e c8 f1 0f 3e c7 2e 6e 3e 21 39 37 3e
       0.40757763 0.14057076 0.23260032 0.17892887
000270 01 0a dc bd 21 6d 83 be 27 f2 22 3f 08 81 96 3e
       -0.107440956 -0.25669196 0.63650745 0.29395318
000280 97 84 3b 3f a3 33 19 bf 1c b6 f2 bd 96 b2 15 bd
       0.7324919 -0.59844416 -0.11851141 -0.036547266
000290 f9 8e 2f be bc d3 c4 bd 3d bc 6f be 24 40 2b bf
       -0.17144383 -0.096106976 -0.23411651 -0.66894746
0002a0 9c fe 28 3e ef 97 a2 3e 80 b0 c9 bb be fc a9 bd
       0.16503376 0.3175654 -0.0061550736 -0.0830016
0002b0 9d 72 ee 3c af 6b a9 be 77 ec 97 be a9 f2 97 3d
       0.029107386 -0.3308997 -0.29672596 0.074193306
0002c0 32 84 5e 3f 09 1f da 3d 7f 4d e8 bd a6 2c bb be
       0.86920464 0.10650451 -0.11342906 -0.36557502
0002d0 59 84 40 be 17 26 68 be e6 5b d1 bd 16 05 46 3e
       -0.18800487 -0.2267078 -0.10222606 0.19337878
0002e0 1c 2b ba bc 8e cd 3e bd e0 48 6f be d6 7f ad be
       -0.022725634 -0.04658275 -0.23367643 -0.33886594
0002f0 dd d4 6e 3f a7 fd 16 3f 6c ca 10 bf f5 d7 7a be
       0.93293554 0.5898079 -0.5655887 -0.24496444
000300 3c c7 10 bf 08 c5 10 bf 73 76 33 bf 73 dc 70 bd
       -0.5655401 -0.56550646 -0.70102614 -0.058803987
000310 44 7c a0 be 09 9f 31 3f af 10 93 3d 64 77 be 3e
       -0.31344807 0.69383293 0.071809165 0.37200463
000320 ea b9 2a 3e 93 7c 22 3f be 3c 88 bd 55 9c a1 bb
       0.16672483 0.63471335 -0.06652211 -0.0049319663
000330 f7 f0 d9 be 20 e2 16 3e e5 10 98 be c5 d5 76 3f
       -0.42566654 0.14734697 -0.2970039 0.96419936
000340 cf 46 0f 3f f6 44 d0 be 8c e7 a4 bc 78 b9 fd 3d
       0.5596742 -0.40677613 -0.020129941 0.12388891
000350 d7 a1 d1 3e 35 1a 3e 3f 10 f5 92 bd 67 b6 f7 3d
       0.40943787 0.7425874 -0.07175648 0.12095337
000360 66 c4 31 be a8 0a be 3d 27 c9 10 bf 3e d0 4c be
       -0.17360076 0.09279376 -0.56556934 -0.20001313
000370 02 a5 a6 3d 8c 06 5d 3f d2 85 89 bd 97 ff 09 3f
       0.081369415 0.86338115 -0.06714977 0.53905624
000380 c6 66 50 3f 8d 8a e9 bd 82 03 56 3e 39 1c 31 3f
       0.8140682 -0.114033796 0.20899776 0.6918369
000390 b0 a0 c0 3e c6 ae 74 3d 1c e1 9e be bd fc b4 3e
       0.37622595 0.05973699 -0.3103112 0.35349074
0003a0 ba c8 4e 3e 07 52 56 bd 51 36 ac be 66 ab 37 be
       0.20193759 -0.05232432 -0.3363519 -0.17936477
0003b0 45 56 ec be f9 d2 b0 be 31 b7 86 3e b1 d3 0e 3f
       -0.46159568 -0.3453596 0.2631164 0.55791765
0003c0 25 60 50 be 5b 0f 17 3f 4d 51 bc bd 13 e6 81 3e
       -0.20349176 0.59007806 -0.091951944 0.25370845
0003d0 24 87 93 3e 12 ec 57 bd 34 57 93 3e a3 27 e1 3e
       0.28814042 -0.05271537 0.28777468 0.43975553
0003e0 09 2a b5 3e e6 2d fa 3e 37 cf f5 3e a2 76 1d 3f
       0.35383633 0.48863143 0.48009655 0.61509144
0003f0 ed 12 17 3e a5 67 b9 3e 26 3d 09 be 39 ad e4 be
       0.14753313 0.36211887 -0.13402233 -0.44663408

l1.bias f4 [8]
000000 9a 1f 3f 3f d9 0b 54 3f 52 46 a3 3e 57 c8 10 3f
       0.74657595 0.8283058 0.31889588 0.56555694
000010 13 0d 65 3f 45 32 15 3f bc 3b bc 3e e4 c0 15 3f
       0.89473075 0.5827983 0.36764324 0.5849745

l2.weight f4 [8, 8]
000000 26 66 6e 3f 32 2b 13 3f 93 fe 59 3f d2 c7 95 3d
       0.93124616 0.57487786 0.85154074 0.07313503
000010 69 70 40 be cf 76 37 bf bc 7b 91 bf 21 0f 5f bd
       -0.18792881 -0.7166566 -1.1365886 -0.054457787
000020 96 99 c8 3f ba 8e 85 3d a9 90 91 3f e5 6f 31 3d
       1.5671871 0.065213636 1.1372272 0.0433196
000030 bf 13 8c be 17 88 96 be 9f ab 5a bf f7 10 89 3f
       -0.27358815 -0.29400703 -0.85418123 1.0708302
000040 0c 3f 5e 3f 24 d1 88 bf 73 82 d5 be 2a 86 68 3f
       0.8681495 -1.0688825 -0.41701087 0.9082972
000050 a4 d9 6c 3f a1 ed 6c 3f a7 6e 44 3f d9 1c 1d bf
       0.92519593 0.9255009 0.7673134 -0.61372143
000060 6d c5 1c be 51 07 91 3f e5 d2 1a 3e 34 e7 04 3f
       -0.15309687 1.1330358 0.15119512 0.5191529
000070 70 95 ea 3e 24 f6 eb be 2f 1d a4 3d 4f d9 82 be
       0.45817137 -0.46086228 0.08013379 -0.25556418
000080 3f 74 7c bf 9e 54 65 3f 6f 5c 53 3f 4b bc e9 3e
       -0.9861488 0.8958224 0.8256292 0.4565147
000090 b1 53 e1 bc 83 1d 9a 3e 9d 42 4f 3e fc 33 3a bf
       -0.027505727 0.3010064 0.20240255 -0.7273557
0000a0 40 b5 58 3f 15 16 3e 3e ef ba 29 3f 49 15 34 bf
       0.84651566 0.18563111 0.66300863 -0.7034498
0000b0 43 bb 45 bf 90 6b 4d 3f c8 74 4b 3f a7 8a 80 3f
       -0.77238864 0.8024225 0.7947507 1.0042313
0000c0 7f 3c fd be 17 f6 1e 3f b5 91 31 bf 06 26 ba be
       -0.49460217 0.62094253 -0.69362956 -0.36357135
0000d0 fc 20 10 3f 12 12 8f 3f a1 b3 4e bf 05 54 0c bf
       0.5630033 1.117739 -0.8074284 -0.54815704
0000e0 d5 bb 97 3e 84 ee 41 3f 3b 63 76 bf 5c 01 94 bf
       0.29635492 0.7575457 -0.96245164 -1.1562915
0000f0 5b 25 ab 3f fb 06 0b 3f 5f 90 4b bf bc 1f ec 3e
       1.3370775 0.54307526 -0.7951717 0.4611796

l2.bias f4 [8]
000000 96 c3 75 3c 36 65 2d 3f e1 41 b2 3e 15 90 56 3f
       0.015000245 0.6773256 0.34815887 0.838136
000010 db 19 2e 3e b2 27 ed bd 1e 0d ac 3e c1 7f 21 3f
       0.1700205 -0.11579837 0.33603758 0.6308556

l3.weight f4 [8, 8]
000000 9d d4 b8 bf f4 ee 51 be 48 77 ac 3e 77 2d 9f bf
       -1.4439884 -0.2050131 0.33684754 -1.243575
000010 f2 68 66 bf d9 58 90 3e 7a 77 9b bf 09 77 96 3e
       -0.90003884 0.28192785 -1.2145836 0.29387692
000020 02 70 2d 3f 95 16 93 3d db 64 9c bf a9 98 20 bd
       0.67749035 0.071820416 -1.2218279 -0.039208088
000030 e8 33 ab 3e 43 c6 82 be e1 21 86 bf 6b 6c 26 bf
       0.3343804 -0.25541887 -1.0479089 -0.6500918
000040 82 49 5c 3e cb b6 6a 3f b1 56 26 3e c5 e4 0a 3e
       0.21512416 0.9168517 0.16244008 0.13563831
000050 4c 27 d6 bf fa 10 38 bf 89 67 a2 bf ce e0 9d bf
       -1.6730742 -0.71900904 -1.2687846 -1.233423
000060 98 15 6a be 12 8d 1d 3f fc f5 b2 bf 0f b1 9f 3e
       -0.228598 0.6154338 -1.3981318 0.31189772
000070 c5 11 a7 bf 4e c8 38 be 77 74 bb be 07 a1 40 3f
       -1.3052298 -0.1804516 -0.36612293 0.7524571
000080 ac d8 a0 bf a2 cc 58 bf 81 11 4d bf 87 c5 41 3f
       -1.2566123 -0.84687245 -0.80104834 0.7569203
000090 cb 12 27 3f 14 11 62 bf d4 e8 86 bf 45 54 21 bf
       0.6526305 -0.8830731 -1.0539804 -0.6301921
0000a0 7e 25 ab bf 61 68 98 bf e3 a5 6f 3f e8 53 61 bd
       -1.3370817 -1.1906854 0.936125 -0.05501166
0000b0 59 e9 2e bf 8c ea 6d bf 55 88 ed bd 56 89 09 bd
       -0.6832481 -0.92936015 -0.11598269 -0.03357824
0000c0 77 f3 a7 bf ad 73 06 3f ca 0a 82 bf 1b 1b b7 be
       -1.3121175 0.5252026 -1.0159543 -0.35762867
0000d0 3d b8 17 bf c6 bf 8e 3f dd 64 84 bf 5c af 74 bf
       -0.592655 1.1152275 -1.0343281 -0.9558008
0000e0 6a f4 8a bf 03 5b 2d bf 96 fd 67 bf db 8b 39 3e
       -1.0855839 -0.67717 -0.90621316 0.18119757
0000f0 7a 49 6f be 92 08 b2 bf db 66 93 3f 6c 4e 10 3f
       -0.23367873 -1.3908865 1.1515764 0.5636966

l3.bias f4 [8]
000000 d2 7b 2b be f7 80 6a be 7b bd e0 3e 2c 31 19 be
       -0.16746452 -0.22900759 0.43894562 -0.14960164
000010 fd 1f e3 3b b8 c3 dc 3e 93 1c ad 3d fb da 9c bd
       0.0069313035 0.43118072 0.08452716 -0.07658955
